…
_k_img.weight', 'img_emb.proj.0.weight', 'img_emb.proj.0.bias', 'img_emb.proj.1.weight', 'img_emb.proj.1.bias', 'img_emb.proj.3.weight', 'img_emb.proj.3.bias', 'img_emb.proj.4.weight', 'img_emb.proj.4.bias']
Successfully loaded pretrained weights
defer_lora_injection@@ False
Tune action head projector: True
Tune action head diffusion model: True
Adding LoRA to model
Total parameters in diffusion model: 5,616,768,992
Trainable parameters in diffusion model: 44,890,144
VLA(
  (backbone): IdentityBackbone()
  (action_head): WANPolicyHead(
    (text_encoder): WanTextEncoder(
      (token_embedding): Embedding(256384, 4096)
      (dropout): Dropout(p=0.1, inplace=False)
      (blocks): ModuleList(
        (0-23): 24 x T5SelfAttention(
          (norm1): T5LayerNorm()
          (attn): T5Attention(
            (q): Linear(in_features=4096, out_features=4096, bias=False)
            (k): Linear(in_features=4096, out_features=4096, bias=False)
            (v): Linear(in_features=4096, out_features=4096, bias=False)
            (o): Linear(in_features=4096, out_features=4096, bias=False)
            (dropout): Dropout(p=0.1, inplace=False)
          )
          (norm2): T5LayerNorm()
          (ffn): T5FeedForward(
            (gate): Sequential(
              (0): Linear(in_features=4096, out_features=10240, bias=False)
              (1): GELU()
            )
            (fc1): Linear(in_features=4096, out_features=10240, bias=False)
            (fc2): Linear(in_features=10240, out_features=4096, bias=False)
            (dropout): Dropout(p=0.1, inplace=False)
          )
          (pos_embedding): T5RelativeEmbedding(
            (embedding): Embedding(32, 64)
          )
        )
      )
      (norm): T5LayerNorm()
    )
    (image_encoder): WanImageEncoder(
      (model): XLMRobertaCLIP(
        (visual): VisionTransformer(
          (patch_embedding): Conv2d(3, 1280, kernel_size=(14, 14), stride=(14, 14), bias=False)
          (dropout): Dropout(p=0.0, inplace=False)
          (pre_norm): LayerNorm((1280,), eps=1e-05, elementwise_affine=True)
          (transformer): Sequential(
            (0): AttentionBlock(
              (norm1): LayerNorm((1280,), eps=1e-05, elementwise_affine=True)
              (attn): SelfAttention(
                (to_qkv): Linear(in_features=1280, out_features=3840, bias=True)
                (proj): Linear(in_features=1280, out_features=1280, bias=True)
              )
              (norm2): LayerNorm((1280,), eps=1e-05, elementwise_affine=True)
              (mlp): Sequential(
                (0): Linear(in_features=1280, out_features=5120, bias=True)
                (1): GELU(approximate='none')
                (2): Linear(in_features=5120, out_features=1280, bias=True)
                (3): Dropout(p=0.0, inplace=False)
              )
            )
            (1): AttentionBlock(
              (norm1): LayerNorm((1280,), eps=1e-05, elementwise_affine=True)
              (attn): SelfAttention(
                (to_qkv): Linear(in_features=1280, out_features=3840, bias=True)
                (proj): Linear(in_features=1280, out_features=1280, bias=True)
              )
              (norm2): LayerNorm((1280,), eps=1e-05, elementwise_affine=True)
              (mlp): Sequential(
                (0): Linear(in_features=1280, out_features=5120, bias=True)
                (1): GELU(approximate='none')
                (2): Linear(in_features=5120, out_features=1280, bias=True)
                (3): Dropout(p=0.0, inplace=False)
              )
            )
            (2): AttentionBlock(
              (norm1): LayerNorm((1280,), eps=1e-05, elementwise_affine=True)
              (attn): SelfAttention(
                (to_qkv): Linear(in_features=1280, out_features=3840, bias=True)
                (proj): Linear(in_features=1280, out_features=1280, bias=True)
              )
              (norm2): LayerNorm((1280,), eps=1e-05, elementwise_affine=True)
              (mlp): Sequential(
                (0): Linear(in_features=1280, out_features=5120, bias=True)
                (1): GELU(approximate='none')
                (2): Linear(in_features=5120, out_features=1280, bias=True)
                (3): Dropout(p=0.0, inplace=False)
              )
            )
            (3): AttentionBlock(
              (norm1): LayerNorm((1280,), eps=1e-05, elementwise_affine=True)
              (attn): SelfAttention(
                (to_qkv): Linear(in_features=1280, out_features=3840, bias=True)
                (proj): Linear(in_features=1280, out_features=1280, bias=True)
              )
              (norm2): LayerNorm((1280,), eps=1e-05, elementwise_affine=True)
              (mlp): Sequential(
                (0): Linear(in_features=1280, out_features=5120, bias=True)
                (1): GELU(approximate='none')
                (2): Linear(in_features=5120, out_features=1280, bias=True)
                (3): Dropout(p=0.0, inplace=False)
              )
            )
            (4): AttentionBlock(
              (norm1): LayerNorm((1280,), eps=1e-05, elementwise_affine=True)
              (attn): SelfAttention(
                (to_qkv): Linear(in_features=1280, out_features=3840, bias=True)
                (proj): Linear(in_features=1280, out_features=1280, bias=True)
              )
              (norm2): LayerNorm((1280,), eps=1e-05, elementwise_affine=True)
              (mlp): Sequential(
                (0): Linear(in_features=1280, out_features=5120, bias=True)
                (1): GELU(approximate='none')
                (2): Linear(in_features=5120, out_features=1280, bias=True)
                (3): Dropout(p=0.0, inplace=False)
              )
            )
            (5): AttentionBlock(
              (norm1): LayerNorm((1280,), eps=1e-05, elementwise_affine=True)
              (attn): SelfAttention(
                (to_qkv): Linear(in_features=1280, out_features=3840, bias=True)
                (proj): Linear(in_features=1280, out_features=1280, bias=True)
              )
              (norm2): LayerNorm((1280,), eps=1e-05, elementwise_affine=True)
              (mlp): Sequential(
                (0): Linear(in_features=1280, out_features=5120, bias=True)
                (1): GELU(approximate='none')
                (2): Linear(in_features=5120, out_features=1280, bias=True)
                (3): Dropout(p=0.0, inplace=False)
              )
            )
            (6): AttentionBlock(
              (norm1): LayerNorm((1280,), eps=1e-05, elementwise_affine=True)
              (attn): SelfAttention(
                (to_qkv): Linear(in_features=1280, out_features=3840, bias=True)
                (proj): Linear(in_features=1280, out_features=1280, bias=True)
              )
              (norm2): LayerNorm((1280,), eps=1e-05, elementwise_affine=True)
              (mlp): Sequential(
                (0): Linear(in_features=1280, out_features=5120, bias=True)
                (1): GELU(approximate='none')
                (2): Linear(in_features=5120, out_features=1280, bias=True)
                (3): Dropout(p=0.0, inplace=False)
              )
            )
            (7): AttentionBlock(
              (norm1): LayerNorm((1280,), eps=1e-05, elementwise_affine=True)
              (attn): SelfAttention(
                (to_qkv): Linear(in_features=1280, out_features=3840, bias=True)
                (proj): Linear(in_features=1280, out_features=1280, bias=True)
              )
              (norm2): LayerNorm((1280,), eps=1e-05, elementwise_affine=True)
              (mlp): Sequential(
                (0): Linear(in_features=1280, out_features=5120, bias=True)
                (1): GELU(approximate='none')
                (2): Linear(in_features=5120, out_features=1280, bias=True)
                (3): Dropout(p=0.0, inplace=False)
              )
            )
            (8): AttentionBlock(
              (norm1): LayerNorm((1280,), eps=1e-05, elementwise_affine=True)
              (attn): SelfAttention(
                (to_qkv): Linear(in_features=1280, out_features=3840, bias=True)
                (proj): Linear(in_features=1280, out_features=1280, bias=True)
              )
              (norm2): LayerNorm((1280,), eps=1e-05, elementwise_affine=True)
              (mlp): Sequential(
                (0): Linear(in_features=1280, out_features=5120, bias=True)
                (1): GELU(approximate='none')
                (2): Linear(in_features=5120, out_features=1280, bias=True)
                (3): Dropout(p=0.0, inplace=False)
              )
            )
            (9): AttentionBlock(
              (norm1): LayerNorm((1280,), eps=1e-05, elementwise_affine=True)
              (attn): SelfAttention(
                (to_qkv): Linear(in_features=1280, out_features=3840, bias=True)
                (proj): Linear(in_features=1280, out_features=1280, bias=True)
              )
              (norm2): LayerNorm((1280,), eps=1e-05, elementwise_affine=True)
              (mlp): Sequential(
                (0): Linear(in_features=1280, out_features=5120, bias=True)
                (1): GELU(approximate='none')
                (2): Linear(in_features=5120, out_features=1280, bias=True)
                (3): Dropout(p=0.0, inplace=False)
              )
            )
            (10): AttentionBlock(
              (norm1): LayerNorm((1280,), eps=1e-05, elementwise_affine=True)
              (attn): SelfAttention(
                (to_qkv): Linear(in_features=1280, out_features=3840, bias=True)
                (proj): Linear(in_features=1280, out_features=1280, bias=True)
              )
              (norm2): LayerNorm((1280,), eps=1e-05, elementwise_affine=True)
              (mlp): Sequential(
                (0): Linear(in_features=1280, out_features=5120, bias=True)
                (1): GELU(approximate='none')
                (2): Linear(in_features=5120, out_features=1280, bias=True)
                (3): Dropout(p=0.0, inplace=False)
              )
            )
            (11): AttentionBlock(
              (norm1): LayerNorm((1280,), eps=1e-05, elementwise_affine=True)
              (attn): SelfAttention(
                (to_qkv): Linear(in_features=1280, out_features=3840, bias=True)
                (proj): Linear(in_features=1280, out_features=1280, bias=True)
              )
              (norm2): LayerNorm((1280,), eps=1e-05, elementwise_affine=True)
              (mlp): Sequential(
                (0): Linear(in_features=1280, out_features=5120, bias=True)
                (1): GELU(approximate='none')
                (2): Linear(in_features=5120, out_features=1280, bias=True)
                (3): Dropout(p=0.0, inplace=False)
              )
            )
            (12): AttentionBlock(
              (norm1): LayerNorm((1280,), eps=1e-05, elementwise_affine=True)
              (attn): SelfAttention(
                (to_qkv): Linear(in_features=1280, out_features=3840, bias=True)
                (proj): Linear(in_features=1280, out_features=1280, bias=True)
              )
              (norm2): LayerNorm((1280,), eps=1e-05, elementwise_affine=True)
              (mlp): Sequential(
                (0): Linear(in_features=1280, out_features=5120, bias=True)
                (1): GELU(approximate='none')
                (2): Linear(in_features=5120, out_features=1280, bias=True)
                (3): Dropout(p=0.0, inplace=False)
              )
            )
            (13): AttentionBlock(
              (norm1): LayerNorm((1280,), eps=1e-05, elementwise_affine=True)
              (attn): SelfAttention(
                (to_qkv): Linear(in_features=1280, out_features=3840, bias=True)
                (proj): Linear(in_features=1280, out_features=1280, bias=True)
              )
              (norm2): LayerNorm((1280,), eps=1e-05, elementwise_affine=True)
              (mlp): Sequential(
                (0): Linear(in_features=1280, out_features=5120, bias=True)
                (1): GELU(approximate='none')
                (2): Linear(in_features=5120, out_features=1280, bias=True)
                (3): Dropout(p=0.0, inplace=False)
              )
            )
            (14): AttentionBlock(
              (norm1): LayerNorm((1280,), eps=1e-05, elementwise_affine=True)
              (attn): SelfAttention(
                (to_qkv): Linear(in_features=1280, out_features=3840, bias=True)
                (proj): Linear(in_features=1280, out_features=1280, bias=True)
              )
              (norm2): LayerNorm((1280,), eps=1e-05, elementwise_affine=True)
              (mlp): Sequential(
                (0): Linear(in_features=1280, out_features=5120, bias=True)
                (1): GELU(approximate='none')
                (2): Linear(in_features=5120, out_features=1280, bias=True)
                (3): Dropout(p=0.0, inplace=False)
              )
            )
            (15): AttentionBlock(
              (norm1): LayerNorm((1280,), eps=1e-05, elementwise_affine=True)
              (attn): SelfAttention(
                (to_qkv): Linear(in_features=1280, out_features=3840, bias=True)
                (proj): Linear(in_features=1280, out_features=1280, bias=True)
              )
              (norm2): LayerNorm((1280,), eps=1e-05, elementwise_affine=True)
              (mlp): Sequential(
                (0): Linear(in_features=1280, out_features=5120, bias=True)
                (1): GELU(approximate='none')
                (2): Linear(in_features=5120, out_features=1280, bias=True)
                (3): Dropout(p=0.0, inplace=False)
              )
            )
            (16): AttentionBlock(
              (norm1): LayerNorm((1280,), eps=1e-05, elementwise_affine=True)
              (attn): SelfAttention(
                (to_qkv): Linear(in_features=1280, out_features=3840, bias=True)
                (proj): Linear(in_features=1280, out_features=1280, bias=True)
              )
              (norm2): LayerNorm((1280,), eps=1e-05, elementwise_affine=True)
              (mlp): Sequential(
                (0): Linear(in_features=1280, out_features=5120, bias=True)
                (1): GELU(approximate='none')
                (2): Linear(in_features=5120, out_features=1280, bias=True)
                (3): Dropout(p=0.0, inplace=False)
              )
            )
            (17): AttentionBlock(
              (norm1): LayerNorm((1280,), eps=1e-05, elementwise_affine=True)
              (attn): SelfAttention(
                (to_qkv): Linear(in_features=1280, out_features=3840, bias=True)
                (proj): Linear(in_features=1280, out_features=1280, bias=True)
              )
              (norm2): LayerNorm((1280,), eps=1e-05, elementwise_affine=True)
              (mlp): Sequential(
                (0): Linear(in_features=1280, out_features=5120, bias=True)
                (1): GELU(approximate='none')
                (2): Linear(in_features=5120, out_features=1280, bias=True)
                (3): Dropout(p=0.0, inplace=False)
              )
            )
            (18): AttentionBlock(
              (norm1): LayerNorm((1280,), eps=1e-05, elementwise_affine=True)
              (attn): SelfAttention(
                (to_qkv): Linear(in_features=1280, out_features=3840, bias=True)
                (proj): Linear(in_features=1280, out_features=1280, bias=True)
              )
              (norm2): LayerNorm((1280,), eps=1e-05, elementwise_affine=True)
              (mlp): Sequential(
                (0): Linear(in_features=1280, out_features=5120, bias=True)
                (1): GELU(approximate='none')
                (2): Linear(in_features=5120, out_features=1280, bias=True)
                (3): Dropout(p=0.0, inplace=False)
              )
            )
            (19): AttentionBlock(
              (norm1): LayerNorm((1280,), eps=1e-05, elementwise_affine=True)
              (attn): SelfAttention(
                (to_qkv): Linear(in_features=1280, out_features=3840, bias=True)
                (proj): Linear(in_features=1280, out_features=1280, bias=True)
              )
              (norm2): LayerNorm((1280,), eps=1e-05, elementwise_affine=True)
              (mlp): Sequential(
                (0): Linear(in_features=1280, out_features=5120, bias=True)
                (1): GELU(approximate='none')
                (2): Linear(in_features=5120, out_features=1280, bias=True)
                (3): Dropout(p=0.0, inplace=False)
              )
            )
            (20): AttentionBlock(
              (norm1): LayerNorm((1280,), eps=1e-05, elementwise_affine=True)
              (attn): SelfAttention(
                (to_qkv): Linear(in_features=1280, out_features=3840, bias=True)
                (proj): Linear(in_features=1280, out_features=1280, bias=True)
              )
              (norm2): LayerNorm((1280,), eps=1e-05, elementwise_affine=True)
              (mlp): Sequential(
                (0): Linear(in_features=1280, out_features=5120, bias=True)
                (1): GELU(approximate='none')
                (2): Linear(in_features=5120, out_features=1280, bias=True)
                (3): Dropout(p=0.0, inplace=False)
              )
            )
            (21): AttentionBlock(
              (norm1): LayerNorm((1280,), eps=1e-05, elementwise_affine=True)
              (attn): SelfAttention(
                (to_qkv): Linear(in_features=1280, out_features=3840, bias=True)
                (proj): Linear(in_features=1280, out_features=1280, bias=True)
              )
              (norm2): LayerNorm((1280,), eps=1e-05, elementwise_affine=True)
              (mlp): Sequential(
                (0): Linear(in_features=1280, out_features=5120, bias=True)
                (1): GELU(approximate='none')
                (2): Linear(in_features=5120, out_features=1280, bias=True)
                (3): Dropout(p=0.0, inplace=False)
              )
            )
            (22): AttentionBlock(
              (norm1): LayerNorm((1280,), eps=1e-05, elementwise_affine=True)
              (attn): SelfAttention(
                (to_qkv): Linear(in_features=1280, out_features=3840, bias=True)
                (proj): Linear(in_features=1280, out_features=1280, bias=True)
              )
              (norm2): LayerNorm((1280,), eps=1e-05, elementwise_affine=True)
              (mlp): Sequential(
                (0): Linear(in_features=1280, out_features=5120, bias=True)
                (1): GELU(approximate='none')
                (2): Linear(in_features=5120, out_features=1280, bias=True)
                (3): Dropout(p=0.0, inplace=False)
              )
            )
            (23): AttentionBlock(
              (norm1): LayerNorm((1280,), eps=1e-05, elementwise_affine=True)
              (attn): SelfAttention(
                (to_qkv): Linear(in_features=1280, out_features=3840, bias=True)
                (proj): Linear(in_features=1280, out_features=1280, bias=True)
              )
              (norm2): LayerNorm((1280,), eps=1e-05, elementwise_affine=True)
              (mlp): Sequential(
                (0): Linear(in_features=1280, out_features=5120, bias=True)
                (1): GELU(approximate='none')
                (2): Linear(in_features=5120, out_features=1280, bias=True)
                (3): Dropout(p=0.0, inplace=False)
              )
            )
            (24): AttentionBlock(
              (norm1): LayerNorm((1280,), eps=1e-05, elementwise_affine=True)
              (attn): SelfAttention(
                (to_qkv): Linear(in_features=1280, out_features=3840, bias=True)
                (proj): Linear(in_features=1280, out_features=1280, bias=True)
              )
              (norm2): LayerNorm((1280,), eps=1e-05, elementwise_affine=True)
              (mlp): Sequential(
                (0): Linear(in_features=1280, out_features=5120, bias=True)
                (1): GELU(approximate='none')
                (2): Linear(in_features=5120, out_features=1280, bias=True)
                (3): Dropout(p=0.0, inplace=False)
              )
            )
            (25): AttentionBlock(
              (norm1): LayerNorm((1280,), eps=1e-05, elementwise_affine=True)
              (attn): SelfAttention(
                (to_qkv): Linear(in_features=1280, out_features=3840, bias=True)
                (proj): Linear(in_features=1280, out_features=1280, bias=True)
              )
              (norm2): LayerNorm((1280,), eps=1e-05, elementwise_affine=True)
              (mlp): Sequential(
                (0): Linear(in_features=1280, out_features=5120, bias=True)
                (1): GELU(approximate='none')
                (2): Linear(in_features=5120, out_features=1280, bias=True)
                (3): Dropout(p=0.0, inplace=False)
              )
            )
            (26): AttentionBlock(
              (norm1): LayerNorm((1280,), eps=1e-05, elementwise_affine=True)
              (attn): SelfAttention(
                (to_qkv): Linear(in_features=1280, out_features=3840, bias=True)
                (proj): Linear(in_features=1280, out_features=1280, bias=True)
              )
              (norm2): LayerNorm((1280,), eps=1e-05, elementwise_affine=True)
              (mlp): Sequential(
                (0): Linear(in_features=1280, out_features=5120, bias=True)
                (1): GELU(approximate='none')
                (2): Linear(in_features=5120, out_features=1280, bias=True)
                (3): Dropout(p=0.0, inplace=False)
              )
            )
            (27): AttentionBlock(
              (norm1): LayerNorm((1280,), eps=1e-05, elementwise_affine=True)
              (attn): SelfAttention(
                (to_qkv): Linear(in_features=1280, out_features=3840, bias=True)
                (proj): Linear(in_features=1280, out_features=1280, bias=True)
              )
              (norm2): LayerNorm((1280,), eps=1e-05, elementwise_affine=True)
              (mlp): Sequential(
                (0): Linear(in_features=1280, out_features=5120, bias=True)
                (1): GELU(approximate='none')
                (2): Linear(in_features=5120, out_features=1280, bias=True)
                (3): Dropout(p=0.0, inplace=False)
              )
            )
            (28): AttentionBlock(
              (norm1): LayerNorm((1280,), eps=1e-05, elementwise_affine=True)
              (attn): SelfAttention(
                (to_qkv): Linear(in_features=1280, out_features=3840, bias=True)
                (proj): Linear(in_features=1280, out_features=1280, bias=True)
              )
              (norm2): LayerNorm((1280,), eps=1e-05, elementwise_affine=True)
              (mlp): Sequential(
                (0): Linear(in_features=1280, out_features=5120, bias=True)
                (1): GELU(approximate='none')
                (2): Linear(in_features=5120, out_features=1280, bias=True)
                (3): Dropout(p=0.0, inplace=False)
              )
            )
            (29): AttentionBlock(
              (norm1): LayerNorm((1280,), eps=1e-05, elementwise_affine=True)
              (attn): SelfAttention(
                (to_qkv): Linear(in_features=1280, out_features=3840, bias=True)
                (proj): Linear(in_features=1280, out_features=1280, bias=True)
              )
              (norm2): LayerNorm((1280,), eps=1e-05, elementwise_affine=True)
              (mlp): Sequential(
                (0): Linear(in_features=1280, out_features=5120, bias=True)
                (1): GELU(approximate='none')
                (2): Linear(in_features=5120, out_features=1280, bias=True)
                (3): Dropout(p=0.0, inplace=False)
              )
            )
            (30): AttentionBlock(
              (norm1): LayerNorm((1280,), eps=1e-05, elementwise_affine=True)
              (attn): SelfAttention(
                (to_qkv): Linear(in_features=1280, out_features=3840, bias=True)
                (proj): Linear(in_features=1280, out_features=1280, bias=True)
              )
              (norm2): LayerNorm((1280,), eps=1e-05, elementwise_affine=True)
              (mlp): Sequential(
                (0): Linear(in_features=1280, out_features=5120, bias=True)
                (1): GELU(approximate='none')
                (2): Linear(in_features=5120, out_features=1280, bias=True)
                (3): Dropout(p=0.0, inplace=False)
              )
            )
            (31): AttentionBlock(
              (norm1): LayerNorm((1280,), eps=1e-05, elementwise_affine=True)
              (attn): SelfAttention(
                (to_qkv): Linear(in_features=1280, out_features=3840, bias=True)
                (proj): Linear(in_features=1280, out_features=1280, bias=True)
              )
              (norm2): LayerNorm((1280,), eps=1e-05, elementwise_affine=True)
              (mlp): Sequential(
                (0): Linear(in_features=1280, out_features=5120, bias=True)
                (1): GELU(approximate='none')
                (2): Linear(in_features=5120, out_features=1280, bias=True)
                (3): Dropout(p=0.0, inplace=False)
              )
            )
          )
          (post_norm): LayerNorm((1280,), eps=1e-05, elementwise_affine=True)
        )
      )
    )
    (vae): WanVideoVAE38(
      (model): VideoVAE38_(
        (encoder): Encoder3d_38(
          (conv1): CausalConv3d(12, 160, kernel_size=(3, 3, 3), stride=(1, 1, 1))
          (downsamples): Sequential(
            (0): Down_ResidualBlock(
              (avg_shortcut): AvgDown3D()
              (downsamples): Sequential(
                (0): ResidualBlock(
…
        (model): CausalWanModel(
          (state_encoder): CategorySpecificMLP(
            (layer1): CategorySpecificLinear()
            (layer2): CategorySpecificLinear()
          )
          (action_encoder): MultiEmbodimentActionEncoder(
            (W1): CategorySpecificLinear()
            (W2): CategorySpecificLinear()
            (W3): CategorySpecificLinear()
            (pos_encoding): SinusoidalPositionalEncoding()
          )
          (action_decoder): CategorySpecificMLP(
            (layer1): CategorySpecificLinear()
            (layer2): CategorySpecificLinear()
          )
          (patch_embedding): Conv3d(48, 3072, kernel_size=(1, 2, 2), stride=(1, 2, 2))
          (text_embedding): Sequential(
            (0): Linear(in_features=4096, out_features=3072, bias=True)
            (1): GELU(approximate='tanh')
            (2): Linear(in_features=3072, out_features=3072, bias=True)
          )
          (time_embedding): Sequential(
            (0): Linear(in_features=256, out_features=3072, bias=True)
            (1): SiLU()
            (2): Linear(in_features=3072, out_features=3072, bias=True)
          )
          (time_projection): Sequential(
            (0): SiLU()
            (1): Linear(in_features=3072, out_features=18432, bias=True)
          )
          (blocks): ModuleList(
            (0-29): 30 x CausalWanAttentionBlock(
              (norm1): WanLayerNorm((3072,), eps=1e-06, elementwise_affine=False)
              (self_attn): CausalWanSelfAttention(
                (q): Linear(
                  in_features=3072, out_features=3072, bias=True
                  (lora_dropout): ModuleDict(
                    (default): Identity()
                  )
                  (lora_A): ModuleDict(
                    (default): Linear(in_features=3072, out_features=4, bias=False)
                  )
                  (lora_B): ModuleDict(
                    (default): Linear(in_features=4, out_features=3072, bias=False)
                  )
                  (lora_embedding_A): ParameterDict()
                  (lora_embedding_B): ParameterDict()
                )
                (k): Linear(
                  in_features=3072, out_features=3072, bias=True
                  (lora_dropout): ModuleDict(
                    (default): Identity()
                  )
                  (lora_A): ModuleDict(
                    (default): Linear(in_features=3072, out_features=4, bias=False)
                  )
                  (lora_B): ModuleDict(
                    (default): Linear(in_features=4, out_features=3072, bias=False)
                  )
                  (lora_embedding_A): ParameterDict()
                  (lora_embedding_B): ParameterDict()
                )
                (v): Linear(
                  in_features=3072, out_features=3072, bias=True
                  (lora_dropout): ModuleDict(
                    (default): Identity()
                  )
                  (lora_A): ModuleDict(
                    (default): Linear(in_features=3072, out_features=4, bias=False)
                  )
                  (lora_B): ModuleDict(
                    (default): Linear(in_features=4, out_features=3072, bias=False)
                  )
                  (lora_embedding_A): ParameterDict()
                  (lora_embedding_B): ParameterDict()
                )
                (o): Linear(
                  in_features=3072, out_features=3072, bias=True
                  (lora_dropout): ModuleDict(
                    (default): Identity()
                  )
                  (lora_A): ModuleDict(
                    (default): Linear(in_features=3072, out_features=4, bias=False)
                  )
                  (lora_B): ModuleDict(
                    (default): Linear(in_features=4, out_features=3072, bias=False)
                  )
                  (lora_embedding_A): ParameterDict()
                  (lora_embedding_B): ParameterDict()
                )
                (norm_q): WanRMSNorm()
                (norm_k): WanRMSNorm()
                (attn): AttentionModule()
                (causal_attn): AttentionModule()
              )
              (norm3): WanLayerNorm((3072,), eps=1e-06, elementwise_affine=True)
              (cross_attn): WanI2VCrossAttention(
                (q): Linear(
                  in_features=3072, out_features=3072, bias=True
                  (lora_dropout): ModuleDict(
                    (default): Identity()
                  )
                  (lora_A): ModuleDict(
                    (default): Linear(in_features=3072, out_features=4, bias=False)
                  )
                  (lora_B): ModuleDict(
                    (default): Linear(in_features=4, out_features=3072, bias=False)
                  )
                  (lora_embedding_A): ParameterDict()
                  (lora_embedding_B): ParameterDict()
                )
                (k): Linear(
                  in_features=3072, out_features=3072, bias=True
                  (lora_dropout): ModuleDict(
                    (default): Identity()
                  )
                  (lora_A): ModuleDict(
                    (default): Linear(in_features=3072, out_features=4, bias=False)
                  )
                  (lora_B): ModuleDict(
                    (default): Linear(in_features=4, out_features=3072, bias=False)
                  )
                  (lora_embedding_A): ParameterDict()
                  (lora_embedding_B): ParameterDict()
                )
                (v): Linear(
                  in_features=3072, out_features=3072, bias=True
                  (lora_dropout): ModuleDict(
                    (default): Identity()
                  )
                  (lora_A): ModuleDict(
                    (default): Linear(in_features=3072, out_features=4, bias=False)
                  )
                  (lora_B): ModuleDict(
                    (default): Linear(in_features=4, out_features=3072, bias=False)
                  )
                  (lora_embedding_A): ParameterDict()
                  (lora_embedding_B): ParameterDict()
                )
                (o): Linear(
                  in_features=3072, out_features=3072, bias=True
                  (lora_dropout): ModuleDict(
                    (default): Identity()
                  )
                  (lora_A): ModuleDict(
                    (default): Linear(in_features=3072, out_features=4, bias=False)
                  )
                  (lora_B): ModuleDict(
                    (default): Linear(in_features=4, out_features=3072, bias=False)
                  )
                  (lora_embedding_A): ParameterDict()
                  (lora_embedding_B): ParameterDict()
                )
                (norm_q): WanRMSNorm()
                (norm_k): WanRMSNorm()
                (k_img): Linear(in_features=3072, out_features=3072, bias=True)
                (v_img): Linear(in_features=3072, out_features=3072, bias=True)
                (norm_k_img): WanRMSNorm()
              )
              (norm2): WanLayerNorm((3072,), eps=1e-06, elementwise_affine=False)
              (ffn): Sequential(
                (0): Linear(
                  in_features=3072, out_features=14336, bias=True
                  (lora_dropout): ModuleDict(
                    (default): Identity()
                  )
                  (lora_A): ModuleDict(
                    (default): Linear(in_features=3072, out_features=4, bias=False)
                  )
                  (lora_B): ModuleDict(
                    (default): Linear(in_features=4, out_features=14336, bias=False)
                  )
                  (lora_embedding_A): ParameterDict()
                  (lora_embedding_B): ParameterDict()
                )
                (1): GELU(approximate='tanh')
                (2): Linear(
                  in_features=14336, out_features=3072, bias=True
                  (lora_dropout): ModuleDict(
                    (default): Identity()
                  )
                  (lora_A): ModuleDict(
                    (default): Linear(in_features=14336, out_features=4, bias=False)
                  )
                  (lora_B): ModuleDict(
                    (default): Linear(in_features=4, out_features=3072, bias=False)
                  )
                  (lora_embedding_A): ParameterDict()
                  (lora_embedding_B): ParameterDict()
                )
              )
            )
          )
          (head): CausalHead(
            (norm): WanLayerNorm((3072,), eps=1e-06, elementwise_affine=False)
            (head): Linear(in_features=3072, out_features=192, bias=True)
          )
          (img_emb): MLPProj(
            (proj): Sequential(
              (0): LayerNorm((1280,), eps=1e-05, elementwise_affine=True)
              (1): Linear(in_features=1280, out_features=1280, bias=True)
              (2): GELU(approximate='none')
              (3): Linear(in_features=1280, out_features=3072, bias=True)
              (4): LayerNorm((3072,), eps=1e-05, elementwise_affine=True)
            )
          )
        )
      )
    )
  )
)

Initializing datasets:   0%|          | 0/1 [00:00<?, ?it/s]relative_action True
Loading relative action stats from /inspire/hdd/project/realtimedecisionmaking/chentao-25011/surd/codes/ccc_rrrr/data/libero_spatial/meta/relative_stats_dreamzero.json
relative_action_per_horizon False
Using relative stats for joint_position: {'max': array([0.46448535, 1.10493329, 0.59629082, 1.53660098, 0.92250961,
…
